cgcnn/model_best.pth.tar (torch_old, 948958 bytes, 87 tensors)

embedding.weight f4 [64, 20]
000000 56 62 70 be 34 8f 4f bf 37 de 80 be ec 48 f1 3f
       -0.23475012 -0.81077886 -0.25169536 1.8850379
000010 26 4d bd be 97 a5 b7 be ed 44 7c 3f 37 10 bb 3e
       -0.36972922 -0.35868523 0.9854267 0.36535808
000020 0d 0b e9 be e7 2b 6b bf c1 38 01 3f cb c8 40 c0
       -0.45516244 -0.91863865 0.50477225 -3.0122554
000030 51 cc 68 3f 7f 56 04 40 ee d2 71 c0 d0 17 97 bf
       0.9093676 2.0677793 -3.7784991 -1.1804142
000040 c2 58 14 bf a7 b7 3b be 7c c2 ae 3e c5 09 08 c0
       -0.57947934 -0.18331777 0.34132755 -2.1255963
000050 e7 73 8e 3e 6d 80 87 bf 4d 3b a2 bf 23 2a 27 bf
       0.278228 -1.0586067 -1.2674347 -0.6529867
000060 c8 55 33 bf 3a 63 ac bf 01 88 39 40 46 f1 93 3f
       -0.70052767 -1.3467782 2.898926 1.1558006
000070 83 6d 19 3f a9 43 eb 3f 65 97 76 be 9b 80 d9 3f
       0.59932727 1.8380023 -0.2408119 1.6992372
000080 7e b6 b3 bf 1d d0 af bf c2 0a 47 40 41 9a 16 40
       -1.4040067 -1.3735386 3.1100316 2.353165
000090 3f 22 8f bf a6 90 a6 bf e0 bf 33 3f d5 9d 95 be
       -1.1182326 -1.3012893 0.70214653 -0.2922198
0000a0 fc 9f 92 3e 93 d7 16 3f 94 c2 db 3d 6b 7f d5 be
       0.28637683 0.5892269 0.10730472 -0.41698775
0000b0 d7 9b 1e 40 a1 04 81 3f e0 d4 93 c0 e8 95 0d bf
       2.4782617 1.0079538 -4.6197357 -0.55306864
0000c0 ce e1 6b 3e e1 6b 9d 3e 76 3d 38 3f f3 4a 3d bf
       0.23035356 0.30746368 0.7196878 -0.7394249
0000d0 78 a9 92 3e 30 ff b5 3e d9 75 da bf e8 70 49 be
       0.2864492 0.35546255 -1.7067214 -0.19671977
0000e0 4f e8 ce 3e 72 b3 1f 3f f3 48 f7 bf fa 81 29 bf
       0.40411612 0.62383187 -1.9319137 -0.66213953
0000f0 a2 1e 3e 3c 9d de 2b be 21 4d 3f bf c1 75 89 3f
       0.011603983 -0.16784139 -0.74727064 1.0739061
000100 0d cc 85 3e 0a 9a 1f bd 76 70 5f bf 43 17 30 bf
       0.2613224 -0.038965262 -0.87280977 -0.68785495
000110 e2 1c 09 3d 7b 3f 85 3d 77 52 40 3f b8 e5 da bf
       0.03347481 0.065062486 0.7512583 -1.7101355
000120 70 b7 95 3f b3 4d 3d 3d 9f 2f ad c0 d1 18 20 bf
       1.1696606 0.046216678 -5.412063 -0.62537867
000130 4e 13 54 be 5e 17 05 bc b6 e6 c7 bb 40 92 d1 bf
       -0.20710489 -0.008123247 -0.006100501 -1.6372757
000140 15 59 c7 3e 41 19 87 3f 36 ac 8f bd a0 e8 ae 3f
       0.38935152 1.0554582 -0.070152685 1.3664742
000150 28 a5 12 3f c2 dc 2d 3f 1f 1f b0 c0 60 21 0b bf
       0.5728326 0.67914975 -5.503799 -0.543478
000160 d0 85 32 3d 6e a1 97 bf 64 42 0a bf 49 e5 08 3f
       0.043584645 -1.184614 -0.54007554 0.5347486
000170 11 cc c4 3f 09 a3 0b bf c5 7e 84 c0 59 3a a9 bf
       1.5374776 -0.54545647 -4.140475 -1.3220931
000180 48 b2 c5 bd 61 22 9b bf a2 d3 46 bf c7 b7 9e 3f
       -0.09653145 -1.2119867 -0.77666676 1.2399834
000190 41 82 14 bf 2d 3a 24 be 04 91 00 be c7 3e 31 3e
       -0.5801125 -0.16037817 -0.12555319 0.17309104
0001a0 fe 63 f3 3f 92 51 ca bf cd 4a 14 c0 72 b5 1f be
       1.901489 -1.5806143 -2.3170655 -0.1559656
0001b0 bb d3 0d bf de 84 0e 40 c7 24 ff bd 1c dd 5e 3f
       -0.554012 2.2268596 -0.124581866 0.87056136
0001c0 f8 16 cc be d2 7f 93 3e 4a 17 ae c0 ee 06 b5 3e
       -0.39861274 0.28808457 -5.440343 0.3535685
0001d0 27 ac d7 bf 14 99 0a c0 8e 7a cf 3d 81 aa ab 3f
       -1.6849412 -2.1655931 0.10130797 1.3411409
0001e0 b1 7f 9a be 4d f5 b7 3f f9 94 81 bf 97 e3 db 3e
       -0.30175546 1.4371735 -1.0123588 0.42947075
0001f0 62 da 79 3f c7 40 1f bf 2e 4a 38 bf 20 1b bb 3f
       0.9759885 -0.6220822 -0.7198819 1.4617653
000200 07 28 4e be 9d 35 34 bf 6d 62 37 3f ee d7 a4 3e
       -0.20132457 -0.7039431 0.7163456 0.3219599
000210 4e f1 b2 bd a5 91 21 bf 27 c6 ad c0 a2 3d 7b bf
       -0.087374315 -0.6311286 -5.4304385 -0.9814092
000220 41 f2 b4 3e c8 5f c5 bc 5f c2 19 3e 5e 6a 52 3d
       0.35341075 -0.024093524 0.15015553 0.05137097
000230 66 26 e6 be df 0f 25 3f 79 ae c9 3e c8 2a 1a 3f
       -0.4495117 0.6447734 0.39390925 0.6022153
000240 7c b7 ff 3f bb fa 64 3e 12 5b b6 bf 6f ec d7 3e
       1.997787 0.22361271 -1.4246542 0.42172572
000250 d9 0d 15 bf 72 84 a9 3f 40 a1 1f 3f 4a db 27 be
       -0.58224255 1.3243544 0.6235542 -0.16392246
000260 3e f1 c1 3e 6c 2b 09 be 5f a8 42 c0 94 d2 70 bb
       0.37879366 -0.1339547 -3.0415266 -0.0036746608
000270 2f 6a 02 bf dc fd 05 bf 7f d1 d6 be e1 97 d6 3e
       -0.50943273 -0.52340484 -0.41956708 0.4191275
000280 f4 c5 2d 3f 9d a3 03 3f 99 20 dd be f6 c6 a0 3e
       0.6788018 0.5142153 -0.43188933 0.31401795
000290 7c ea 98 bf 99 0f 14 40 ee ac a5 bf 8d 75 c4 be
       -1.1946559 2.313452 -1.2943399 -0.38370934
0002a0 b3 ab d0 3e 49 67 fd bf 00 d8 89 3e 74 27 82 bf
       0.40755996 -1.9797145 0.26922607 -1.016829
0002b0 1d c2 d8 3f 72 b5 a7 be cb c5 ad 3f 88 05 22 bf
       1.6934239 -0.3275562 1.3575987 -0.6328969
0002c0 b5 d7 7a 3f ae 02 94 3f ef dc 4f 3d b0 8b 0e c0
       0.9798539 1.1563318 0.050747808 -2.2272758
0002d0 b1 dd 59 bd 42 35 7a bf 55 25 20 3f 71 76 9d be
       -0.053189937 -0.97737515 0.62556964 -0.30754426
0002e0 ce e6 11 40 5c 17 b2 3e f9 e0 98 be 71 74 1c bf
       2.2797122 0.34783447 -0.2985914 -0.61115175
0002f0 1f 98 07 3d 2b 04 55 40 a3 0d 0b 3f 7f 33 41 3e
       0.03310406 3.3283794 0.54317683 0.188673
000300 8f 00 4c be 6d fa 98 be e8 8b 6b 3f c2 bf d4 3f
       -0.19922088 -0.2987856 0.92010355 1.662102
000310 e2 c7 e4 bf 73 28 cc bf c0 38 65 3e ab bd 1c bf
       -1.7873499 -1.5949844 0.2238493 -0.6122691
000320 f5 94 b5 bf af 65 10 be 57 88 8c be fe 6f ae 3d
       -1.4186083 -0.14101289 -0.2744777 0.085174546
000330 64 89 2f 3f 16 34 cf bf 68 3a ee bf 99 b5 1b bf
       0.68569016 -1.618777 -1.8611574 -0.6082397
000340 80 b3 bd bf 6c 64 d8 3f d2 60 61 3f 8b a2 12 bf
       -1.4820404 1.6905646 0.8803836 -0.5727927
000350 de 0d 6e bf a1 69 16 3f ea 4f fb c0 8f bb 27 3e
       -0.9298991 0.58754927 -7.853505 0.16380142
000360 a9 2f c6 bd 71 fe 2d bf a8 78 3d 3e 5a 50 df 3e
       -0.09677059 -0.6796637 0.18503058 0.4361599
000370 66 58 93 3e 75 6c 59 bf 08 f5 cf 3d ad 73 96 bf
       0.2877838 -0.8493112 0.10154158 -1.1754051
000380 66 3e e2 3e 1a d2 d6 3f 6b 41 f6 bf 11 56 90 bf
       0.4418823 1.6782868 -1.9238714 -1.1276265
000390 09 71 08 3f e5 fe cc 3f 6d f4 88 be fc d3 33 3f
       0.5329748 1.6015288 -0.26748982 0.7024534
0003a0 60 78 f9 be 43 0d 1e bf 4b 2a 92 40 2a 11 65 3f
       -0.4872465 -0.61738986 4.5676627 0.89479315
0003b0 64 12 c3 be a1 2f a2 be b2 50 5a 3f 1f 04 b4 bf
       -0.38099968 -0.31676963 0.8527938 -1.4063758
0003c0 c6 bb 3a 3e 95 b3 7b 3e 3d 24 bf 3e 3a 5a 6f be
       0.18235692 0.24580224 0.37332335 -0.23374262
0003d0 e8 1f 8c 3f 26 39 da bf 1d e6 b1 be 0a 5e 5d bf
       1.0947237 -1.704869 -0.34745875 -0.8647162
0003e0 9b b9 83 bb b6 f3 aa be 50 fd e5 3e 6d ed 84 bf
       -0.0040199286 -0.33389062 0.44919825 -1.0384957
0003f0 48 b8 eb bd a5 35 15 3f 6a 97 f3 c0 0c f3 01 c0
       -0.11509758 0.5828498 -7.612233 -2.0304594

embedding.bias f4 [64]
000000 66 90 60 3e e5 53 84 bf 78 df 1c bf 7c 19 99 bd
       0.21930084 -1.0338103 -0.61278486 -0.07475564
000010 b5 23 6c 3e dd ef 3f bf 36 0e 8c be 06 eb ae 3e
       0.23060496 -0.7497538 -0.27354592 0.34163684
000020 61 7a 9b 3e de cc d8 3e f4 1a cd be 3f 57 cd 3e
       0.30366805 0.423438 -0.40059626 0.40105626
000030 a2 4e 8a bf 60 f0 46 bf 13 49 00 be 75 79 59 bd
       -1.0805247 -0.77710533 -0.12527876 -0.053094346
000040 49 fb 5c bc 1f f8 cf 3e d2 10 44 3f a7 3f ad 3e
       -0.013487645 0.4061899 0.76588166 0.33837625
000050 e8 79 ab be 12 d6 88 3f 48 47 a3 3f a2 5c 15 3f
       -0.33491445 1.0690329 1.2756128 0.5834447
000060 0c 7b ce bf b6 69 78 be 2e 38 35 3f 80 63 bd be
       -1.6131301 -0.24259076 0.7078885 -0.36989975
000070 1b 81 39 bf 56 b8 76 ba c0 91 dd 3e 07 ec a5 3e
       -0.72462624 -0.00094116235 0.4327526 0.32406637
000080 b3 27 e3 3e 5f a3 63 3f b1 59 f2 3e de 38 3b be
       0.44366226 0.8892116 0.47334054 -0.18283412
000090 9b 3a 6e 3f 2e 9c 73 be 61 ce 90 3e cf 0f 59 be
       0.93058175 -0.23790047 0.28282455 -0.21197437
0000a0 88 c8 7b bf 0e 01 29 bd c5 2d eb 3e 60 6d 39 bf
       -0.9835286 -0.04126077 0.45933357 -0.7243252
0000b0 9e 90 1d be e6 20 1b be b2 f4 66 bf 5d 67 52 3e
       -0.15387198 -0.15149269 -0.90217125 0.20547242
0000c0 7b 95 ee be 71 c7 a8 3e 20 43 ad 3e 6e 59 d1 3e
       -0.4659842 0.32964662 0.33840275 0.40888542
0000d0 06 90 e8 be e3 0f 0a bf 21 2d 83 be 9d f6 8f 3e
       -0.4542238 -0.5393049 -0.25620368 0.28117839
0000e0 05 a7 0b be af 32 0c bf 59 53 eb be f1 1e af be
       -0.13637932 -0.5476484 -0.45962027 -0.34203294
0000f0 1a e8 80 bf 70 f2 51 bd 5a 18 bc be f9 da 37 bf
       -1.0070832 -0.051256597 -0.3673733 -0.718185

convs.0.fc_full.weight f4 [128, 129]
000000 4d 44 99 3e f0 2c 14 40 34 ef af bf 0d f1 9d 3e
       0.29934922 2.3152428 -1.3744874 0.3084797
000010 b7 51 6b c0 49 a5 93 3d 3e b0 64 bf 3e 38 96 be
       -3.6768625 0.0720926 -0.89331424 -0.29339784
000020 cd 5a 72 bf 39 8f 1e 40 fa ec ca 3e 2c 54 29 bd
       -0.946698 2.4774916 0.39633924 -0.04134004
000030 8f 2f 20 bf cc bd f2 3f 49 19 90 bf d5 2b a3 be
       -0.6257257 1.8964171 -1.1257716 -0.3186938
000040 c7 ba 0d c0 b5 e3 21 3f 59 93 72 c0 88 09 04 c0
       -2.214525 0.6323808 -3.7902434 -2.0630817
000050 ef 17 52 40 80 6d ed be 37 a1 49 bf a9 f3 1a 3f
       3.2827108 -0.46372604 -0.7876162 0.60528046
000060 ab b3 8a bf c9 3e 33 3e 63 54 3f 40 6c 85 d7 bf
       -1.083608 0.1750442 2.9895256 -1.6837592
000070 18 67 f3 3e 89 ce 5b 3f 12 15 16 bf 8a 06 0c 3f
       0.47539592 0.8586202 -0.586259 0.5469748
000080 cf 7b e7 3f 48 84 2e bf ec 4e 0c c0 20 22 a0 be
       1.8084658 -0.68170595 -2.192317 -0.31276035
000090 b9 c1 81 bf c0 68 b7 be 6d 01 0a be 19 e7 10 3f
       -1.0137244 -0.35822105 -0.13477106 0.5660263
0000a0 a1 60 c5 3f e9 a9 34 bf 4f 27 ba bf 84 7a 90 bf
       1.5420114 -0.7057176 -1.4543246 -1.1287389
0000b0 d4 7f ba 3e 95 86 1f bc c1 40 96 bd 6d d5 9b bf
       0.3642565 -0.009736677 -0.073365696 -1.2174507
0000c0 bf bb 2f bf a7 b7 15 bd 96 60 eb bf af 72 e9 3e
       -0.6864585 -0.036552098 -1.8388851 0.4559531
0000d0 00 bf 80 3f fc bc 9e 3f 21 7c c5 3f 9c 64 47 bf
       1.0058289 1.2401423 1.5428506 -0.7788789
0000e0 28 45 43 bf 15 db bf bf 36 33 57 bf 09 2c 87 3f
       -0.762774 -1.4988734 -0.84062517 1.0560313
0000f0 24 d9 f4 bf 7d 15 0f 3e c1 38 87 bd ea 59 c2 bf
       -1.9128766 0.13973041 -0.06602622 -1.518369
000100 d5 1a 09 3f f5 60 7f be e3 2c 81 3e c9 67 6a 3f
       0.5355657 -0.2493933 0.25229558 0.91564614
000110 ea 89 06 40 24 a7 5c 40 a0 64 81 3f f8 3e 0d 40
       2.1021676 3.4477015 1.0108833 2.2069683
000120 8e b7 0a c0 5c bb 63 3e c4 69 6a 40 09 6c 7a bf
       -2.1674533 0.2223944 3.6627054 -0.978211
000130 56 64 62 3f 41 3c 63 3f 26 ce 31 bf bf 16 e5 3f
       0.8843435 0.88763815 -0.6945518 1.7897567
000140 31 f4 6b 3f 39 64 13 40 78 35 85 3f 67 df f3 3f
       0.9216948 2.302992 1.0406942 1.9052552
000150 04 04 25 bf 27 63 cc 3f 3f 42 da 3f ed e1 8f bf
       -0.6445925 1.5967759 1.7051467 -1.1240822
000160 df 82 c8 3d 2e 43 4a c0 18 2b b6 bf e6 54 a0 3f
       0.09790587 -3.1603503 -1.4231901 1.2525909
000170 1b 70 32 40 4d e7 cd 3e 0a 27 dc 3f 2b ab 0f be
       2.7880924 0.4021553 1.7199414 -0.14030139
000180 4b d1 12 c0 19 d9 b9 3e d8 0e ba 3c f1 94 7f 3f
       -2.2940242 0.36298445 0.022712156 0.9983664
000190 1e ea 47 40 d1 d0 07 c0 f8 3c 85 3e 16 c4 54 3f
       3.1236644 -2.1221201 0.26023078 0.83111703
0001a0 a3 4e 3b bf 14 23 d2 3f 3f 82 e6 3f 72 05 24 3f
       -0.73166865 1.6416955 1.8008498 0.6407081
0001b0 23 0a 65 3f 89 7f 90 3e 75 a9 8c bd 9e 77 03 40
       0.8946859 0.28222302 -0.06868259 2.0541759
0001c0 32 70 1f 40 2c 89 d4 3f dd ff 5b 3f 1c 7a 8c 3e
       2.4912229 1.6604362 0.8593729 0.27436912
0001d0 da 39 a3 bf b9 e2 00 3f aa 70 00 40 56 54 80 3f
       -1.275203 0.5034595 2.0068765 1.0025737
0001e0 68 0a 0a 40 31 bc e9 3f ce 5e 84 3e 6d 77 bc 3f
       2.1568851 1.8260556 0.2585358 1.4723946
0001f0 b6 bd fd 3f fa 6f da bf 89 a7 95 3f 66 0d 29 3e
       1.982352 -1.7065423 1.1691753 0.16509017
000200 bc fa f9 b9 8d 75 0b c0 fb 53 da 3e ed e7 4c bf
       -0.00047679793 -2.1790497 0.42642197 -0.8004139
000210 bc f7 d3 bf ae 45 fa be ac a7 d0 be 0d 92 e2 bf
       -1.6559978 -0.48881286 -0.40752923 -1.7700821
000220 bf 2a 43 3e 25 9a 2d be a4 b3 57 3f 03 73 b5 bf
       0.19059275 -0.16953333 0.84258485 -1.4175724
000230 26 d6 1e be 53 b1 03 bf a1 6f 0e 3f 0c 37 06 bf
       -0.15511379 -0.5144245 0.5563908 -0.52427745
000240 02 c3 ab bf b8 fb 96 bf 54 98 82 be e0 10 8f bc
       -1.3418887 -1.1795568 -0.25506842 -0.017464101
000250 2b 65 3c be 3c 58 45 3e d4 7c b7 bf 0a b3 a6 be
       -0.18397968 0.1927194 -1.433497 -0.3255847
000260 af 42 3d 3f 13 e8 c4 bf 8d 82 e2 3f df 02 20 3e
       0.73929876 -1.5383323 1.7696091 0.15626095
000270 e8 0c 63 3d b6 06 2e bf 5d 87 4f bd e2 6c 90 bf
       0.05543223 -0.6797899 -0.0506662 -1.1283228
000280 9c e8 88 3f e7 a9 9c 3e ad 4b 0d 3f a2 d6 40 bf
       1.0695987 0.30598375 0.551936 -0.75327504
000290 0c 5e 2c 3f 4b 21 22 bf c7 32 eb 3e dd a1 9e 3f
       0.67331004 -0.6333205 0.45937178 1.2393147
0002a0 16 9b 31 3e 07 18 12 bd e1 5e 8a bd 5e 00 1f bf
       0.17344317 -0.035667446 -0.06756378 -0.62109935
0002b0 fb 93 69 3f 59 34 f5 3e ed d5 4c 3f 74 06 76 3e
       0.91241425 0.478915 0.80013925 0.24025899
0002c0 c9 e4 7d bf a4 6f 69 bf 01 32 ca bf 6b db ba 3e
       -0.99177223 -0.91185975 -1.579651 0.36495528
0002d0 28 64 f7 3f a8 f5 1a 3f f9 3c 46 3f ba 18 53 3d
       1.932744 0.6053109 0.77436787 0.051537253
0002e0 4c 3a ba 3d ad 78 8d bf 6e 33 92 3e ac 86 6f 3e
       0.090931505 -1.1052452 0.28554863 0.23391217
0002f0 96 db 4e be 3f 3f a8 bf be 4a cf 3e 50 89 ba bf
       -0.20200953 -1.3144301 0.4048671 -1.4573154
000300 05 77 c3 be 2d db b9 3f e8 57 61 be 1b bf 55 bf
       -0.38176742 1.4520012 -0.2200619 -0.8349473
000310 c0 eb 9f 3f f5 2a 82 bd c2 2a fc 3f f0 82 ae 3f
       1.249382 -0.0635585 1.9700549 1.3633709
000320 49 11 bc 3f 8b 2f a4 bf 0a 1e 39 bf 58 b9 50 3f
       1.4692775 -1.2827009 -0.7231146 0.8153281
000330 9e be bc bf 2f 76 b8 3e 14 0b d5 be dc 30 1f bf
       -1.4745672 0.36027667 -0.41610014 -0.6218393
000340 76 38 a6 3f 2a 43 d7 be 22 2e 86 3f 1b 36 3f bf
       1.298598 -0.4204343 1.0482829 -0.74691933
000350 bd bb 07 40 32 8a 9b bf 8a 43 8e be ae 08 c0 3f
       2.1208336 -1.2151549 -0.27785903 1.5002649
000360 37 da 97 bf c1 c0 c0 3d e5 06 cd bf 8b 7c 9a 3f
       -1.1863469 0.09411765 -1.6017729 1.2069257
000370 01 98 1e 3f 53 38 10 40 4d e2 ac bf f2 7a 6a 3f
       0.6195069 2.2534378 -1.3506562 0.9159385
000380 e4 17 06 bf 61 d7 ab bf 7c 76 84 3f 41 2e 06 bf
       -0.52380204 -1.3425103 1.0348659 -0.5241433
000390 49 ec 97 3e 01 9f c8 3f 2d 82 cf bf 6c f9 31 bf
       0.2967246 1.5673524 -1.6211601 -0.6952121
0003a0 0f 87 8d 3f e5 67 83 bf fe 7e 94 bf 49 bf 97 bf
       1.1056842 -1.0266081 -1.1601255 -1.1855251
0003b0 5b 4f 09 bf 4f 23 01 bf 95 38 8e be ab 50 9d 3f
       -0.5363671 -0.504445 -0.27777544 1.2290243
0003c0 1c 92 c7 bd fd 11 00 40 d3 30 7f 3f 2c 2d 08 3e
       -0.09744665 2.001098 0.99683875 0.13298482
0003d0 46 ef 58 bf 2c d5 95 bf 80 39 8e 3f 9b 83 00 40
       -0.847401 -1.170568 1.1111298 2.0080326
0003e0 49 38 2c bd 03 37 8a bf 96 f0 90 bf 88 6c 47 3f
       -0.042045865 -1.0798038 -1.1323421 0.7789998
0003f0 31 e3 42 bf f5 c0 98 3f 6f 27 25 bf 7d d1 06 40
       -0.76127917 1.1933886 -0.64513296 2.1065361

convs.0.fc_full.bias f4 [128]
000000 28 ab c3 3d 4c f2 a2 bc 55 e7 ee be 35 0c 71 bd
       0.0955413 -0.019890927 -0.46660867 -0.058849532
000010 fc d7 16 3e 04 a6 d2 3e 45 a4 d8 3c 33 32 23 3e
       0.14730829 0.41142285 0.026445517 0.15937118
000020 6d 7d ca 3e c9 72 45 3e 94 ff 4f be 89 4c 1f bd
       0.39548817 0.19282068 -0.20312339 -0.03889135
000030 d9 6f 54 be 95 0f 70 bd 7d b8 1e 3e 4a ec dc 3e
       -0.20745791 -0.05860861 0.15500064 0.43149024
000040 ac b7 3d 3d d6 f0 6b 3d 83 16 69 3c ca 07 bd be
       0.04631774 0.057602726 0.014226559 -0.36920005
000050 33 b0 15 3d f8 99 7e bd 5a 66 4d 3e f2 db 4c 3e
       0.03654499 -0.062158555 0.20058575 0.20005777
000060 8c 76 fc bd 8f ca cc 3e 88 52 b6 be 86 15 d3 3d
       -0.123272985 0.3999829 -0.3560984 0.1030684
000070 0e 10 25 be 2f 42 9b 3d f2 cb 3f 3d d9 e6 6d bd
       -0.16119406 0.07580983 0.046825357 -0.05808148
000080 8c d1 8d bd 9c 08 8b bd 5b 67 21 be 5a c7 3f 3c
       -0.069247335 -0.067887515 -0.15762083 0.011705244
000090 45 38 0b be 2a 47 93 3d ce 66 ae 3e a5 99 af 3d
       -0.13595684 0.07191308 0.3406281 0.08574227
0000a0 e7 e5 3d be e2 05 78 bd 71 33 21 bd 88 53 b1 be
       -0.18544732 -0.060552485 -0.0393557 -0.34634042
0000b0 8b 03 39 be da 6c 10 3e c7 26 ac be bc 37 01 3c
       -0.18067758 0.14104024 -0.33623335 0.007886823
0000c0 9e 63 c5 bc ec 29 01 bd 89 aa 48 3d 53 1a fd be
       -0.024095353 -0.03153412 0.04899076 -0.49434146
0000d0 72 cd 91 3d 16 5e 12 be c0 43 b3 bd 4f 1b 0b bc
       0.07119264 -0.14293703 -0.08753157 -0.008490398
0000e0 48 bc 2d 3e e3 27 af 3d ac 57 99 bd 5d 33 52 be
       0.16966355 0.0855253 -0.07487425 -0.20527406
0000f0 95 27 22 be 94 14 79 bd a0 45 a6 3c a8 90 49 3d
       -0.15835412 -0.06081064 0.020296872 0.04921022
000100 2c 41 14 3e a3 e7 10 3e 56 b0 b5 be 4b 34 fc 3d
       0.14477986 0.14150862 -0.35486096 0.123146616
000110 f4 51 38 3e 58 62 4b 3e 81 80 09 3e e8 79 26 3f
       0.18000013 0.19861734 0.13427927 0.65029764
000120 32 f7 a4 bd 83 c2 e4 3d b7 0c 70 3d f6 c4 76 3d
       -0.08054961 0.11169913 0.058605876 0.06024643
000130 45 ae 79 be ac 4c 17 be 2b 83 bb 3e c6 71 c2 3e
       -0.24382885 -0.14775342 0.3662351 0.37977427
000140 a4 6a ac be d8 61 36 3e 47 76 18 3f 0e 88 1e 3e
       -0.3367511 0.17810762 0.59555477 0.15481588
000150 2b 92 c6 bb f2 01 62 3f 0d 3d ab 3d f3 44 7f bd
       -0.006059905 0.8828422 0.08361254 -0.062321614
000160 2c f0 97 3d 29 54 43 be df 72 34 3e 5f a3 57 bd
       0.07418856 -0.19075073 0.17621945 -0.052646037
000170 c7 9b 6e 3e b9 de 11 3e 38 49 9d bc d9 b0 10 bd
       0.23301612 0.14245118 -0.019199952 -0.035324905
000180 04 18 b4 bd b5 8c 95 3d 9b c1 c3 3e 83 84 a4 bc
       -0.08793643 0.07302228 0.38233647 -0.020082718
000190 ff c8 aa 3e 5e c0 43 be ff 78 07 be de ca 79 be
       0.33356473 -0.19116351 -0.1322975 -0.24393794
0001a0 9d 87 b4 3e 56 c8 cc 3e 47 de 1f 3d 5b 82 0b bf
       0.35259715 0.39996594 0.03903034 -0.5449578
0001b0 7d 61 e3 3d 0e 63 42 bd fd 9a 82 3e 08 b6 88 3d
       0.11102579 -0.047457747 0.25508872 0.06675345
0001c0 e2 98 c5 bd 4a b8 be be 5b 11 de 3d d0 82 5b 3e
       -0.09648301 -0.37249976 0.10843154 0.2143662
0001d0 9e 73 4d 3d 33 13 b2 be 8c 93 25 3e 4b 12 c8 3e
       0.05015909 -0.34780273 0.16169566 0.39076456
0001e0 fd f8 14 3d a3 bf 9e be bd 4a 9e 3e bd da 07 be
       0.036370266 -0.31005582 0.30916396 -0.13267036
0001f0 8e a3 0d 3e 9b 5e 26 3d d8 e7 b1 3e 05 00 8b bd
       0.13831922 0.040617567 0.34747195 -0.06787113

convs.0.bn1.weight f4 [128]
000000 1e 51 e0 3f e2 a1 e3 3e 5f f0 6b 40 16 d0 72 40
       1.7524755 0.44459444 3.686546 3.7939506
000010 f3 06 d6 40 f3 25 8c 40 97 05 5c 40 f0 57 2c 40
       6.6883483 4.3796325 3.4378412 2.6928673
000020 cc 50 4e 41 a6 cd 41 41 f5 60 9f 3f 40 ac 6c 41
       12.894726 12.112707 1.2451464 14.792053
000030 ae ff 3e 3f 25 7c 09 40 80 a1 8a 40 41 b0 a9 40
       0.74608886 2.1482022 4.3322144 5.3027654
000040 cd b8 dc 3f 8b 8a 29 41 b4 0e b2 40 f1 c0 2f 41
       1.7243897 10.596324 5.564295 10.984605
000050 75 f2 97 40 3b 7b a9 3f 35 b8 fb 40 52 48 6d 40
       4.748347 1.3240732 7.866236 3.707539
000060 2d 0f 17 40 26 b3 7e 40 df 80 00 41 b8 aa c5 40
       2.3603013 3.9796844 8.031463 6.1770897
000070 06 e8 ba 40 20 9c 8a 40 d4 fa c4 40 9d 50 06 40
       5.840823 4.331558 6.1556187 2.0986702
000080 80 72 3f 41 61 82 84 40 51 7c bc 40 4d 32 e7 40
       11.965454 4.1409154 5.8901753 7.22489
000090 68 d5 8d 40 8d 6e 90 40 8c ab 41 40 34 fb 81 40
       4.4323006 4.513495 3.0260954 4.0619144
0000a0 ae 43 ca 40 47 c7 93 3f 2f 94 39 40 45 e6 9b 3f
       6.3207617 1.154519 2.8996694 1.2179648
0000b0 a4 a8 2c 40 0d 5d db 40 33 61 04 41 57 b2 89 40
       2.697793 6.8551087 8.27373 4.30302
0000c0 21 32 20 bf 3d 3b 68 40 a4 4c 95 40 00 42 10 41
       -0.6257649 3.6286156 4.6656055 9.016113
0000d0 6e d5 10 41 5d d2 e2 40 bb f2 ff 40 7f 87 f0 40
       9.052107 7.088179 7.99838 7.51654
0000e0 ef 21 a2 3f 24 58 d2 3f b4 ea 5a 40 5b 73 f7 3e
       1.2666606 1.6433148 3.4205751 0.48330197
0000f0 9d 59 7d 3f 4d fa 91 40 9e a8 a6 40 3c 90 07 3f
       0.98964864 4.5618043 5.208083 0.5295446
000100 10 0d 39 3f 40 f4 f7 3f fd 3a ea 3f c4 1c 5f 40
       0.72285557 1.9371414 1.8299252 3.4861307
000110 d0 d7 25 3f 72 3a 84 3f 6b 8a e5 3f 1e 17 fa 3f
       0.6478243 1.0330336 1.7932867 1.9538305
000120 46 c4 77 bd 4a 90 d2 3f 8c cc 5a 40 3d 77 87 3f
       -0.060489915 1.6450284 3.4187346 1.0583264
000130 f2 65 78 40 f4 fb ee 3f db 3c db 3f 63 e1 31 3f
       3.8812222 1.867064 1.7127947 0.6948454
000140 eb 6d 34 3f f0 e5 c4 3f 35 ab 48 3f bd 23 3c 3f
       0.7048022 1.5382671 0.7838624 0.7349203
000150 0f fc 8e 40 c0 9d b4 40 ae 2c 93 3f 8e 28 44 40
       4.468269 5.6442566 1.149801 3.0649753
000160 7e 11 3d 3f a9 62 e1 3f 0b a5 57 3f 9c b3 2d 3f
       0.73854816 1.7608234 0.8423621 0.6785219
000170 08 2a 0d 40 77 fa fe 3f 32 64 05 40 6e 56 4a 40
       2.2056904 1.9920186 2.0842404 3.1615252
000180 31 07 45 40 35 2d 40 40 12 77 3a 40 de 47 22 3f
       3.078564 3.0027592 2.9135175 0.6339091
000190 3b ac b5 40 4b c0 25 3f da cb 8a 40 2d f0 0c 3f
       5.677274 0.6474654 4.337384 0.5505398
0001a0 bf 88 8c 40 ee b6 eb 3f 32 5a c9 3f ff 05 e4 3f
       4.3916926 1.8415201 1.573065 1.781433
0001b0 30 1a b4 3f ab 0e b3 3f 36 03 b8 3f ae ad 39 40
       1.4070492 1.3988851 1.437598 2.9012256
0001c0 b1 00 e5 40 7a 96 67 40 8f bb fd 3f d9 7e f6 3f
       7.1563344 3.6185594 1.9822863 1.9257461
0001d0 0b 48 0a 3f 42 54 94 3f 56 f6 8d 3f 6e 96 18 40
       0.5401618 1.1588213 1.1090801 2.3841815
0001e0 78 31 03 40 35 51 bc 3f 06 61 66 40 a3 0f d5 3f
       2.0498943 1.4712282 3.5996718 1.6645397
0001f0 57 6e 33 40 11 0d f8 3f ff 17 77 40 b4 02 af 3f
       2.8036096 1.9378988 3.8608396 1.36727

convs.0.bn1.bias f4 [128]
000000 35 6e be bf 61 3a 21 40 31 2e 3e be 30 a1 48 3f
       -1.4877383 2.5191882 -0.18572308 0.7837095
000010 e5 e5 8f 3e 5a 9f 52 3f c6 25 03 bf f8 e7 bf bf
       0.28105083 0.822744 -0.5122951 -1.4992666
000020 8d e6 c2 3f e3 c0 d5 bf 26 0b 63 bf da 85 f6 3e
       1.5226609 -1.6699489 -0.88688886 0.48148996
000030 4b 4d 91 3e 8d 42 62 bf b8 e3 28 bf 3b 76 9e 3e
       0.28379282 -0.883828 -0.6597247 0.30949578
000040 07 6c 92 3f 90 ba 0e bf 11 65 0c bf 87 cd 86 3f
       1.1439217 -0.5575342 -0.54841715 1.0531472
000050 1c 6e 87 3f 2c 49 80 bf 70 94 0e bf 6a 58 c3 bf
       1.0580478 -1.002233 -0.5569525 -1.5261357
000060 9b 0b 1b 3f d1 6c b3 bf 0a 74 50 bf 30 3f 77 3f
       0.60564584 -1.4017583 -0.8142706 0.9658079
000070 37 a1 ad 3f 19 49 55 bf 8a d3 96 bf 00 dc 82 bf
       1.3564824 -0.83314663 -1.1783307 -1.0223389
000080 30 cc e4 bf ae fa c4 bf 64 3a 83 be 21 ef ac be
       -1.7874813 -1.5389001 -0.25630486 -0.3377619
000090 1a bc 3b bf 2a 7b 37 3f b1 88 df bf 3b 9e 59 3f
       -0.73333895 0.7167231 -1.746359 0.85007066
0000a0 52 e4 38 3e 4e f9 ee be ce 62 98 bf 4d 96 7e bd
       0.18055847 -0.4667458 -1.1905153 -0.062155057
0000b0 a4 0e 7a bf 50 1b 25 3f 2e f1 78 3f 3a 7e c2 bf
       -0.9767859 0.644948 0.9724301 -1.5194771
0000c0 3e b0 b3 be e6 8b 1e c0 62 ed 50 3f 46 8e 30 be
       -0.350954 -2.4772887 0.8161222 -0.17241773
0000d0 3e 94 b4 3d 0b f7 3f be 04 8b 3a 3f 71 5d c2 3c
       0.088173375 -0.18746583 0.7286837 0.023726197
0000e0 98 3a 96 bf b6 2b b3 bf e9 51 07 3f c6 e6 02 bf
       -1.1736631 -1.3997715 0.5285936 -0.5113338
0000f0 b5 85 97 c0 b9 61 96 bf 75 a9 c6 bf 06 ea 0f bf
       -4.7350717 -1.1748573 -1.5520464 -0.56216466
000100 95 fa 1b c0 3f 0d b1 bf 96 c9 e8 bf 6f 96 d7 be
       -2.4371693 -1.3832167 -1.8186519 -0.4210696
000110 ea 2c 41 40 ee 64 17 3f 88 f2 79 bf 1b 45 fe bf
       3.0183663 0.5913838 -0.976357 -1.9864839
000120 39 03 24 41 c3 d5 50 bf 4b e4 cc bf 89 8d 9e 3f
       10.250787 -0.81576174 -1.600717 1.2386943
000130 dc 7b 32 3d 27 f0 ac bf d0 97 66 3f 3c 06 cd 3f
       0.043575153 -1.3510789 0.900754 1.6017528
000140 cc 69 03 40 b3 ca 39 bf bc 4f 7c 3f 2d 03 72 40
       2.0533323 -0.7257492 0.98559165 3.7814438
000150 dd b5 97 3f 47 6b 99 bf aa e2 43 3f ad 80 20 c0
       1.1852375 -1.1985863 0.76517737 -2.5078537
000160 47 05 61 3f 5c 73 8c 3f ac 6a d3 3e 06 e8 1c 40
       0.8789868 1.0972705 0.41292322 2.4516616
000170 d6 a6 0b 3f 70 64 50 bd 25 e2 3c bf 39 12 1d 3e
       0.54551446 -0.050877035 -0.7378257 0.15338983
000180 58 12 85 3f dc 30 3f bf 0a 41 1b be 33 d1 da 40
       1.0396223 -0.7468393 -0.15161529 6.838037
000190 79 92 81 bf f6 cc b7 3f ba 7e 95 bf bb 0e 0d 40
       -1.0122825 1.4359424 -1.1679299 2.204024
0001a0 b9 a1 8b bf 91 bb f3 bf 97 48 f7 3e 77 04 1d c0
       -1.0908729 -1.9041616 0.4829757 -2.4533975
0001b0 3f 11 9e 3e 3a 17 af 3d c0 33 48 3f c9 52 b3 be
       0.30872533 0.08549352 0.78203964 -0.35024098
0001c0 51 18 cd bf 20 8d 8f bf 87 b0 d5 3f 5f 6f 21 3f
       -1.6023046 -1.1214943 1.6694497 0.63060564
0001d0 96 06 20 40 6b b5 00 3f 75 c4 45 3f 9b 94 89 be
       2.500402 0.5027682 0.77252895 -0.2687119
0001e0 42 fb 8a bf 5a 92 0e c0 fd a0 08 3f 73 c8 39 bf
       -1.0857928 -2.2276826 0.5337065 -0.72571486
0001f0 c2 48 63 c0 26 c0 1b 3f 54 1b c7 bf 5c 9b 51 be
       -3.5513158 0.6084007 -1.5555215 -0.20469421

convs.0.bn1.running_mean f4 [128]
000000 42 c4 ad c1 43 3b 26 42 85 97 5e c2 e3 d3 58 41
       -21.720829 41.557873 -55.64797 13.55173
000010 89 c0 02 c1 0c 06 fc 41 08 d4 ad c2 6f c7 93 42
       -8.172006 31.502953 -86.91412 73.88952
000020 02 4a 4e 42 3f 96 8b 42 8c 03 b7 c2 8d 5d 06 41
       51.572273 69.79345 -91.50693 8.39784
000030 42 74 d1 c2 f7 06 42 41 c7 d2 16 42 02 a3 21 41
       -104.727066 12.1267 37.705837 10.102297
000040 3e 16 2a 42 aa cf 12 c2 a6 f9 64 c2 f7 f7 a1 41
       42.52172 -36.702797 -57.243797 20.246077
000050 36 fc 71 42 0a d8 84 c2 2c 03 8a 42 ab f7 aa c1
       60.4963 -66.42195 69.006195 -21.370932
000060 e6 7b 9e c0 1a 48 c7 41 b2 62 5c c2 1e 8b 63 41
       -4.9526243 24.910206 -55.096382 14.221464
000070 88 09 a7 c2 8e 6d 80 42 c7 9a a2 c2 47 5f 1b c2
       -83.518616 64.213974 -81.3023 -38.843044
000080 3a 11 95 42 77 d9 09 c2 6d 23 02 c1 3e 7a 14 bd
       74.533646 -34.462368 -8.133649 -0.03624939
000090 04 88 f3 c1 d2 3d c0 42 8f f1 52 c2 7e 5f 3c 42
       -30.441414 96.12074 -52.735897 47.093254
0000a0 72 b0 49 c2 46 74 70 42 4c 8a 89 c2 eb e1 0b c3
       -50.42231 60.11355 -68.77011 -139.88249
0000b0 6a 81 37 c1 64 bc d3 c0 85 ac 8f bf f9 80 4c c2
       -11.469095 -6.616747 -1.1224524 -51.12595
0000c0 c4 cf 96 be 28 0a c4 c0 ca 8d 04 c2 14 d0 a1 c2
       -0.29455388 -6.12624 -33.138466 -80.9064
0000d0 d5 7d 11 c2 da 96 e4 41 c4 28 18 c2 0a 68 34 42
       -36.372883 28.573658 -38.03981 45.1016
0000e0 49 ef 66 41 71 36 28 42 46 d8 eb 42 1f 8d 1c c2
       14.433419 42.053165 117.92241 -39.137814
0000f0 74 20 62 c2 60 21 ed 41 c0 b6 af 42 99 fd 8d 42
       -56.531693 29.641296 87.85693 70.99531
000100 b8 dd 05 c0 9e 04 3c 42 d8 94 04 c2 d7 58 63 42
       -2.0916576 47.00451 -33.145355 56.836758
000110 78 e7 8b c1 f7 71 50 42 9f c9 b5 41 61 ec 16 42
       -17.488022 52.111294 22.723448 37.73084
000120 23 c9 87 c2 cd 1f db c0 13 7c 95 c2 be b8 aa c2
       -67.892845 -6.847632 -74.74233 -85.360825
000130 b2 46 da c2 41 b6 7b 42 4a 50 18 c2 dc ab d4 c2
       -109.13808 62.927982 -38.078407 -106.33566
000140 d3 cd cc c1 77 99 62 42 ea 08 9c c2 a0 8e a8 c1
       -25.6005 56.649868 -78.01741 -21.069641
000150 d9 7e 9d c2 88 04 5f c2 78 4e 09 41 8b 45 7f c2
       -78.74775 -55.754425 8.581657 -63.817913
000160 6d 7d 91 c1 be 7c 4c c2 e9 86 a7 c2 89 09 be 41
       -18.186243 -51.12182 -83.7635 23.754656
000170 a5 84 53 42 d4 95 4d 41 48 43 cf c2 11 34 8c c2
       52.879536 12.849079 -103.63141 -70.10169
000180 b5 ae 1a c3 f4 2f f0 41 3a 30 c2 c2 cc fd 6b c2
       -154.68245 30.023415 -97.09419 -58.99785
000190 d8 56 db c1 ac e8 c2 42 70 50 f8 c1 c3 a6 23 42
       -27.417404 97.45444 -31.039276 40.912853
0001a0 40 35 02 41 e3 32 42 42 b6 f2 e1 c1 cd 28 d2 c2
       8.1380005 48.549694 -28.243511 -105.07969
0001b0 ec 2c 08 c2 52 b9 20 c2 72 b5 2c 42 bd 99 6d c2
       -34.04387 -40.180977 43.177193 -59.400135
0001c0 be 57 99 42 67 68 7f c2 e7 72 a7 c0 11 05 7b c2
       76.67137 -63.851955 -5.232776 -62.754948
0001d0 be 08 c4 c2 de b1 3c c1 01 e9 4a c0 50 b2 8a c2
       -98.017075 -11.793425 -3.1704714 -69.34827
0001e0 4f e5 ed c1 e0 9e 54 42 00 c1 53 42 82 54 85 c1
       -29.736967 53.15515 52.938477 -16.666264
0001f0 e2 6b 0f c0 e1 52 49 c2 d2 8e a8 41 ab 63 32 42
       -2.2409596 -50.330936 21.069736 44.597332

convs.0.bn1.running_var f4 [128]
000000 21 d1 3e 44 d4 05 43 44 d2 f4 e4 43 17 d9 f8 43
       763.26764 780.09106 457.91266 497.696
000010 05 23 33 44 d7 de b7 43 a9 b2 73 44 d7 0f 5f 44
       716.5472 367.74094 974.79156 892.2475
000020 34 2c 5f 44 b9 a0 37 44 a4 8b 94 44 bc 16 55 44
       892.6907 734.5113 1188.3638 852.3552
000030 13 0a 96 44 4c 1f 01 44 b3 d3 43 44 20 4d 76 44
       1200.3148 516.489 783.3078 985.2051
000040 fd fd 93 44 46 f7 1f 44 67 66 02 44 04 e6 00 44
       1183.9371 639.86365 521.60004 515.594
000050 10 e8 69 44 af 1a 19 44 78 76 69 44 d2 7e 73 43
       935.626 612.41693 933.8511 243.49539
000060 ff 9b e8 42 4c 8c 5f 44 25 37 49 44 b7 c0 0d 44
       116.30468 894.19214 804.86163 567.01117
000070 f5 ee 96 43 9f 1d 1f 44 05 d2 11 44 42 bc 24 44
       301.86685 636.4628 583.28156 658.9415
000080 ac 44 4a 44 04 98 1b 44 06 7c 92 44 46 dd 9b 44
       809.073 622.37524 1171.8757 1246.9148
000090 77 d0 12 44 2d 5e 30 44 2c fc 68 44 f1 64 74 44
       587.25726 705.4715 931.9402 977.5772
0000a0 fe f0 bc 43 89 d0 15 44 b4 04 8c 44 ee 88 15 44
       377.88275 599.25836 1120.147 598.1395
0000b0 ee ed 64 44 81 ed 9b 44 47 b4 92 43 f2 0b ef 43
       915.71765 1247.422 293.40842 478.09332
0000c0 e9 6e 11 44 3c 3e 40 44 2a bc 03 44 8f 81 03 44
       581.733 768.9724 526.94006 526.02435
0000d0 3f 75 27 44 15 9e 1b 44 06 6b 24 44 83 81 21 44
       669.832 622.47003 657.67224 646.0236
0000e0 2d e2 ca 44 27 fd 95 44 a0 0a 2f 44 55 f7 96 44
       1623.068 1199.911 700.166 1207.7291
0000f0 e2 31 1e 44 7b 14 50 44 f9 a4 c0 43 c0 5e 3c 44
       632.7794 832.32 385.28885 753.48047
000100 e9 5c 1d 44 5d 26 70 44 18 cb 87 44 72 c0 3d 44
       629.4517 960.5994 1086.3467 759.00696
000110 95 32 46 44 56 48 58 44 9f f7 b6 44 c9 8d 8f 44
       792.79034 865.13025 1463.7382 1148.4308
000120 f8 2a 11 45 b7 ec a8 44 de 0e b0 44 78 75 9c 44
       2322.6855 1351.3973 1408.4646 1251.6709
000130 8d 42 a4 44 38 5b 47 44 74 49 28 44 08 bc 92 44
       1314.0797 797.4253 673.1477 1173.876
000140 9b 03 9b 44 30 a6 74 44 22 ad 98 43 26 73 d7 44
       1240.1127 978.5967 305.3526 1723.5984
000150 0a 06 8f 44 26 74 73 44 e5 b2 db 44 64 c2 18 44
       1144.1887 973.8148 1757.5905 611.03735
000160 af 90 72 43 d0 3d 82 44 93 6b 5d 44 8e 08 13 44
       242.56517 1041.9316 885.68085 588.13367
000170 5f 3d 29 44 fc 42 46 44 56 0e 0b 44 d8 e4 18 44
       676.9589 793.04663 556.224 611.5757
000180 cd c1 96 44 b7 3a 31 44 a6 da 7e 44 78 f4 a9 44
       1206.0563 708.9174 1019.4164 1359.6396
000190 4c b4 51 44 5e 99 0a 44 13 c7 2e 44 5a 82 8b 44
       838.81714 554.39636 699.11053 1116.0735
0001a0 b5 84 3e 44 26 2c ad 43 9e e0 49 44 31 b1 9f 44
       762.07355 346.3449 807.50964 1277.5372
0001b0 a6 23 3f 44 a2 51 ef 44 24 1d 54 44 47 9d 75 44
       764.557 1914.551 848.4553 982.45746
0001c0 1f 35 c9 43 73 b0 ad 44 54 11 6e 44 8b 92 c1 44
       402.415 1389.514 952.27075 1548.5795
0001d0 98 da 80 44 b1 99 8a 44 ba d2 21 44 3e 6f a2 44
       1030.831 1108.8029 647.2926 1299.4763
0001e0 d1 9e 2a 44 52 0a 90 44 4e 03 95 44 45 f1 8e 44
       682.4815 1152.3225 1192.1033 1143.5397
0001f0 0d 77 28 44 8f ff d8 43 23 b5 b6 44 23 92 09 44
       673.86017 433.99655 1461.6605 550.2834

convs.0.bn2.weight f4 [64]
000000 81 a4 fa 3f a0 fc 97 3f 09 22 ad 3f 87 bc ab 3f
       1.9581453 1.187397 1.3526012 1.3416909
000010 4f 7c d6 3f 0b 3c b3 3f 0e 1c bb 3f 3e 5f 80 3f
       1.6756686 1.4002699 1.4617937 1.0029066
000020 ec 99 d3 3f 77 a0 af 3f 3f f5 1d 40 31 78 0e 40
       1.6531348 1.3720845 2.4680936 2.226086
000030 81 83 1e 40 4c ea a6 3f ae e8 07 40 0f 73 2c 40
       2.4767764 1.3040252 2.1235766 2.6945226
000040 ee 3c ff 3f 4b 95 d6 3f 16 0e e2 3f 4f 03 26 40
       1.9940469 1.6764311 1.7660549 2.593952
000050 e3 64 12 40 10 a9 2c 40 81 01 fa 3f 2d 5a bd 3f
       2.2874076 2.6978188 1.9531709 1.4793144
000060 81 51 ea 3f d1 a7 9b 3f de a0 1d 40 50 25 df 3f
       1.8306123 1.2160589 2.4629436 1.7433262
000070 71 24 b7 3f de 8e b0 3f 3c 0b 83 3f d1 cc 9e 3f
       1.4307996 1.37936 1.0237803 1.2406255
000080 b0 d9 0b 40 eb c9 b2 3f 8a 92 e6 3f a9 e0 05 40
       2.1851616 1.396787 1.801347 2.0918372
000090 f1 4f 11 40 7b 32 01 40 9c 69 05 40 99 a5 22 40
       2.2705042 2.018706 2.084571 2.5413573
0000a0 5f dd 40 40 4e 5d c7 3f 3b ba d1 3f 1f 39 14 40
       3.0135114 1.5575349 1.6384958 2.3159864
0000b0 a4 a8 05 40 b8 76 b3 3f d1 7a 17 40 21 e1 56 3f
       2.088418 1.4020605 2.366871 0.8393727
0000c0 c7 6a 23 40 4e 75 f9 3f 74 27 16 40 cb fa 32 40
       2.5533922 1.9488924 2.346158 2.7965572
0000d0 bd 8a da 3f 45 b3 97 3f a7 c1 0f 40 49 79 13 40
       1.707359 1.1851584 2.2461946 2.3042777
0000e0 57 bc e5 3f 7e 06 0c 40 bc 3c 93 3f cd cc 03 40
       1.7948102 2.1878963 1.150291 2.059375
0000f0 ef 29 ed 3f a5 6d ef 3f 22 ea b9 3f c1 ef 1d 40
       1.8528422 1.8705336 1.4524577 2.4677584

convs.0.bn2.bias f4 [64]
000000 ff 3b 12 3e 18 c2 83 bf cd 39 e1 be d6 32 e4 3d
       0.14280699 -1.0293608 -0.4398941 0.11142509
000010 9e 99 60 3e 29 84 38 bf ac 8a 99 be 1d 61 2d 3e
       0.219336 -0.7207666 -0.2998861 0.16931577
000020 e4 5a c2 3e d6 34 98 3e 4e de f7 be bf b7 0d 3f
       0.3795997 0.2972781 -0.48411793 0.553585
000030 5e 33 62 bf 20 91 13 bf 68 d5 47 bd 42 64 a3 bd
       -0.8835963 -0.5764332 -0.048787504 -0.07978107
000040 f6 9c e0 3d 07 7e d9 3e 24 e2 30 3f 81 2c 05 3f
       0.10967438 0.42478964 0.69095063 0.5202103
000050 f5 93 85 be 6c f9 6c 3f 38 83 b3 3f 1e 9e fe 3e
       -0.26089445 0.9256809 1.402442 0.4973001
000060 9e 31 c6 bf 09 12 1a be 26 2b 0d 3f ae ef d2 be
       -1.5483892 -0.15045942 0.55143964 -0.41198486
000070 27 18 14 bf 85 c5 9c 3d e7 1c d8 3e 8f 21 7d 3e
       -0.57849354 0.07654861 0.4220955 0.24719833
000080 a3 5a 24 3f 04 c4 63 3f 55 3e ca 3e 0f 76 c8 bd
       0.642008 0.8897097 0.3950068 -0.09788143
000090 f2 82 63 3f 5e f1 c2 be 4d d1 b7 3e d6 81 ab bd
       0.8887168 -0.38074774 0.3590187 -0.083743736
0000a0 53 39 73 bf 9a ba 82 be 84 8b a2 3e 4b 34 01 bf
       -0.95009345 -0.2553299 0.31747067 -0.5047042
0000b0 94 64 a8 be d9 6a ae 3c 2f c7 35 bf 3f 77 9b 3e
       -0.32889235 0.021291183 -0.71007055 0.30364415
0000c0 e3 10 0c bf ec 44 87 3e 42 be 7f 3e cc 65 96 3e
       -0.5471327 0.2641977 0.24974921 0.2937454
0000d0 51 1d 91 be c0 23 0d bf 8a 3b e6 bd 9e d9 b2 3e
       -0.2834268 -0.55132675 -0.11241825 0.34931654
0000e0 56 14 a4 be ec 2b ea be 1d a3 e1 be fb 8e 0c bf
       -0.32046765 -0.45736635 -0.44069758 -0.5490567
0000f0 3f e1 90 bf 1a 28 29 be 74 72 0e bf 1f 34 44 bf
       -1.131874 -0.16519204 -0.5564339 -0.7664203

convs.0.bn2.running_mean f4 [64]
000000 a6 72 84 3e 06 79 36 40 54 68 93 3f ba 2a c8 40
       0.2586872 2.8511367 1.1516213 6.2552156
000010 6e 3e 2a 41 b7 6c 83 40 67 c4 86 3f 60 86 a2 3f
       10.640242 4.107021 1.0528687 1.2697258
000020 fd af 14 42 18 39 e9 3e 90 64 0d 40 ee 99 91 40
       37.171864 0.45551372 2.2092628 4.5500402
000030 06 26 b2 40 a9 4c ff 3f 1b f4 af 40 61 aa 9a 40
       5.5671415 1.994527 5.498548 4.833298
000040 f5 af 1a 41 1d 6d d0 3f 18 d7 80 40 90 8b 62 41
       9.667958 1.6283299 4.0262566 14.159073
000050 ab 13 37 41 cb 82 81 40 6d 86 26 40 e1 a2 09 40
       11.442302 4.047216 2.6019547 2.1505663
000060 94 a7 a9 40 76 91 ae 40 c3 86 59 40 d7 fa 01 41
       5.3017063 5.4552565 3.3988502 8.12374
000070 cf 86 ba 40 cf a8 71 40 c0 d7 28 40 83 e6 b3 40
       5.828956 3.7759283 2.6381683 5.6218886
000080 08 4e 94 40 d6 5c 8a 40 d8 db a0 40 29 8f b7 41
       4.6345253 4.3238325 5.0268364 22.944902
000090 3b 41 05 41 6b 31 aa 40 a3 9b c5 40 80 08 fd 40
       8.328425 5.3185325 6.1752486 7.9072876
0000a0 39 1c 71 40 4f 1f 86 3f 96 16 6e 40 89 dd 02 3f
       3.7673476 1.0478305 3.7201285 0.51119286
0000b0 7b e1 62 40 75 cb 39 40 9e 72 97 40 98 f4 81 40
       3.5450122 2.903043 4.7327414 4.0611076
0000c0 d1 40 d8 40 db 51 17 40 81 d7 0d 41 a6 c5 92 40
       6.757912 2.364371 8.865113 4.586627
0000d0 1e d3 d5 40 e2 d2 90 40 15 5b 95 40 19 e9 47 40
       6.682021 4.5257425 4.6673684 3.1236022
0000e0 95 6b a0 3f 4c 99 4d 3f 54 00 1a 41 dc 65 e9 3f
       1.2532831 0.8031204 9.62508 1.823421
0000f0 18 77 e8 3d 64 e1 61 40 cb 85 99 40 3e 8a fe 3f
       0.1135084 3.5293818 4.797582 1.9885938

convs.0.bn2.running_var f4 [64]
000000 00 0b e0 3d 95 75 4d 41 6e 67 75 3f 19 c8 48 42
       0.10939598 12.841207 0.95860946 50.195408
000010 1c 9f 28 42 5d 7c e5 40 de 98 b1 3f 53 8b ef 3f
       42.15538 7.171431 1.3874776 1.8714393
000020 c0 61 d3 43 3e 67 88 3e 5d 86 d2 40 80 54 40 41
       422.76367 0.26641268 6.578902 12.02063
000030 bb 4d 85 41 10 7b f6 40 54 16 92 41 9d a6 c2 40
       16.662954 7.7025223 18.260902 6.0828385
000040 d6 dd 3b 40 79 af 61 40 87 51 03 41 c7 b1 69 42
       2.9354148 3.526335 8.207404 58.42361
000050 54 dc b9 42 ee 31 5c 41 c8 53 da 40 af 22 c4 41
       92.93033 13.76219 6.822727 24.516935
000060 cd 1b 7b 41 cd f8 8d 41 d7 82 8b 40 95 ca b8 41
       15.694287 17.746485 4.3597217 23.098917
000070 cf a7 ae 41 c6 c8 5e 41 10 75 c9 40 fc bb 21 42
       21.831938 13.924017 6.29554 40.43358
000080 66 fc ec 41 71 10 e5 41 2d fb 1f 41 ed d2 69 43
       29.623241 28.633028 9.998822 233.82393
000090 1e d6 58 42 20 fa 34 41 2a c0 21 42 eb b9 ac 41
       54.2091 11.311066 40.43766 21.59078
0000a0 72 9d 48 42 f1 88 1e 40 de e1 69 41 4c 7c 19 3e
       50.153755 2.4771082 14.617643 0.14988822
0000b0 30 23 d8 40 47 9a d6 40 ee d6 67 41 76 e3 b3 41
       6.7542953 6.7063327 14.489973 22.486065
0000c0 7e 99 25 42 a4 6b f5 41 c9 72 2a 42 d8 95 44 41
       41.399895 30.677559 42.612095 12.286583
0000d0 87 22 9b 41 70 54 85 41 86 c3 0d 41 69 7e 01 41
       19.39186 16.66623 8.860235 8.093362
0000e0 c2 24 af 3f cf 7d 2e 3f 18 9a 9b 42 1f 33 86 3f
       1.3683093 0.6816072 77.800964 1.0484351
0000f0 e2 5b 5e 3f 46 93 39 41 19 0d c6 42 c2 55 00 40
       0.8685895 11.598455 99.02558 2.0052342

convs.1.fc_full.weight f4 [128, 129]
000000 ec 4e ec 3f 68 cd 07 bd 11 83 e9 be ff 5e 62 bf
       1.8461585 -0.033154875 -0.45607808 -0.884262
000010 4e 04 3b bf 35 8a 8b be 83 cf 94 be 43 40 61 3f
       -0.73053443 -0.2725388 -0.2906457 0.8798868
000020 96 2e 03 c0 fa 5a 24 40 1c c2 9f bf ea 84 ab 3f
       -2.0497184 2.5680528 -1.2481112 1.3399937
000030 20 27 90 3f 5f a4 22 3f 82 17 13 bd 58 70 44 40
       1.126194 0.6353206 -0.03591109 3.069357
000040 a5 f0 66 bf 80 88 1c 40 3f 08 c7 be 2e ac 08 be
       -0.90210944 2.4458313 -0.3887348 -0.13346931
000050 f5 71 88 bf 45 15 a1 bf 9c df 81 3f 5b 5e d6 bf
       -1.0659777 -1.2584616 1.0146365 -1.6747545
000060 c2 19 fa be 7d 1b 39 bf 10 59 0e 3f e4 50 40 3e
       -0.48847777 -0.7230757 0.5560465 0.18780857
000070 0b 45 b7 bf df e1 8e bf de 06 79 3e 72 71 a3 bf
       -1.4317945 -1.116268 0.24319026 -1.2768996
000080 1c be 2a be e1 9b 04 40 59 05 9b 3f 96 e0 b1 bd
       -0.16674083 2.072014 1.2111007 -0.086854145
000090 7e 50 e9 3f 72 39 91 bf 8b be 90 3f d1 c7 5f 3f
       1.8227689 -1.1345656 1.1308149 0.8741427
0000a0 e8 5b 22 c0 89 73 09 40 83 3a 7d bf 77 22 55 bf
       -2.5368595 2.1476767 -0.98917407 -0.83255714
0000b0 92 de 73 3e fb 91 9e be c6 30 f1 3f f6 a4 f5 be
       0.23815373 -0.3097075 1.884301 -0.47977418
0000c0 c8 5d 00 3e 7e 74 23 be c7 f2 c7 bf 7c d9 41 bf
       0.12535775 -0.15962407 -1.5620965 -0.7572248
0000d0 f0 d2 07 c0 1d d2 15 40 4e 54 5e bf 1d 9d 16 40
       -2.1222496 2.3409493 -0.8684739 2.3533394
0000e0 9c 23 8c 3d 86 46 03 c0 e2 a2 61 be f1 23 34 be
       0.068427294 -2.0511794 -0.22034791 -0.17591836
0000f0 ff 40 82 bf 66 70 21 40 7d 90 b9 3f cc e6 90 bf
       -1.0176085 2.5224853 1.4497219 -1.1320434
000100 c0 2c 93 3f d5 14 bd bf ad 48 d0 bf e4 7d 4a 3f
       1.1498032 -1.4771982 -1.6272179 0.79098344
000110 c9 83 11 bf 89 fe f1 3d 7b e2 0b 3f 22 e6 43 bf
       -0.56841713 0.11816127 0.54642457 -0.7652303
000120 1e a3 7e 3f 1b 99 2e 3e 8d 20 be 3f ec fc 8e 3e
       0.9946765 0.17050593 1.4853684 0.2792734
000130 2a 05 f9 3f c3 cc 2f 3f 72 57 d9 3c 6e 0c 95 3f
       1.9454701 0.68671817 0.026530955 1.1644418
000140 54 63 a0 3e 70 5e b6 bf 14 e0 9e 3d a2 79 a7 3e
       0.3132578 -1.424757 0.07757583 0.32709986
000150 56 6f c1 3f 88 02 4f 3f a6 c6 5e bf 90 0b 97 3e
       1.5112102 0.8086324 -0.87021863 0.2950101
000160 90 64 36 3e 3b d3 27 3f 03 10 86 be 20 9b 0d 3f
       0.17811799 0.6555669 -0.2618409 0.55314827
000170 5d 06 f4 3f 3e d4 f3 bf b5 62 15 bf 5f 69 3a 3f
       1.9064442 -1.9049146 -0.5835374 0.72817034
000180 b7 6d 9c bf e9 2a a2 3f 2f f7 df bf 8a 64 18 3f
       -1.2220982 1.2669345 -1.749731 0.5952841
000190 8d 23 50 3e a2 d7 71 3f f1 d1 1d 3e ed 40 05 3e
       0.20326062 0.94469655 0.15412118 0.13013048
0001a0 7e b0 26 3f 48 20 47 be 9a 6a 9a bc a3 00 ee 3f
       0.65113056 -0.19445908 -0.01884966 1.8593944
0001b0 1a 73 17 bf 37 d2 ec be 24 8d b3 be cd 2c d1 3e
       -0.59160006 -0.4625413 -0.3506862 0.40854493
0001c0 8e a8 b5 bf c6 44 f5 be b8 78 97 3f 9c b1 93 bf
       -1.4192064 -0.47904032 1.1833715 -1.1538577
0001d0 d1 0b 34 3f 31 eb 81 bf 95 4e 81 3f 96 55 04 c0
       0.7033053 -1.01499 1.0102106 -2.0677238
0001e0 79 6a 07 bf 68 cd 44 be 36 33 dd bf df de 90 bf
       -0.5289684 -0.19218981 -1.7281253 -1.1318015
0001f0 07 5e 4f be ad 54 b2 be c2 34 bf 3f a2 eb e2 3e
       -0.20250712 -0.34830227 1.4937975 0.443204
000200 50 f9 a4 3d 08 cc 08 bf 2b ab 03 bf 91 9a e2 3f
       0.08055365 -0.53436327 -0.51433057 1.770342
000210 13 0a a6 bf 0b 22 8c be 8b a2 d9 3f 7c 8a 88 bf
       -1.2971824 -0.27369723 1.7002729 -1.0667262
000220 b6 cb a8 3f 6e c0 9e 3f 81 4c 2c bf b6 d7 c6 be
       1.3187168 1.2402475 -0.67304236 -0.3883645
000230 35 b0 1e bf 75 2f 76 bf 43 db c3 3f 7f d1 e4 3e
       -0.6198762 -0.96166164 1.5301288 0.44691083
000240 e6 a6 29 c0 d9 b7 86 be 9e ea 05 3e e6 6c 5b 3f
       -2.6508117 -0.2631214 0.1307778 0.8571304
000250 f6 56 4f bf 66 ac 82 bd 07 f5 eb 3f 39 b6 80 3f
       -0.80992067 -0.06380539 1.8434151 1.005561
000260 ec 2c 06 bf ee 4c b6 3e 94 26 3b 3d 50 a0 b0 bf
       -0.52412295 0.35605568 0.045691088 -1.3798923
000270 ad 83 25 bf 8e 39 86 bf 9e 54 b5 3f a2 e2 e6 bd
       -0.64654046 -1.0486314 1.4166448 -0.112736955
000280 de f3 f4 bf cb 79 94 3c a4 47 d0 be fc d5 98 3c
       -1.9136922 0.018124482 -0.40679657 0.018656723
000290 bb a8 7d bf f5 e4 3d 3f 44 e8 57 bf 53 83 f7 3e
       -0.9908559 0.74177486 -0.84338784 0.4834238
0002a0 1c 9e f7 3d f1 51 dc bd 98 a7 95 3c c4 11 a1 bf
       0.12090704 -0.107578166 0.018268391 -1.2583547
0002b0 cc 18 58 c0 6f a2 a2 bf be 89 cb bf fa 1f 3b 40
       -3.3765135 -1.2705821 -1.590141 2.9238267
0002c0 3a 27 2b bf 48 88 aa c0 03 13 80 bf 66 41 ba bf
       -0.6685673 -5.329136 -1.0005802 -1.4551208
0002d0 e1 ae 96 be 54 7f 00 c0 81 f6 9a 3e 6f 63 0a 3f
       -0.29430297 -2.0077715 0.30266193 0.54057974
0002e0 b0 55 9b bf 31 c5 1b c0 7d 21 6b 3f 8a 3f 5c 3e
       -1.2135525 -2.4339106 0.91847974 0.21508613
0002f0 40 d6 3d 3f aa ef 69 3e 41 57 eb 3f c7 dd 40 be
       0.74155045 0.22845331 1.8386003 -0.18834601
000300 d5 2c c3 bf c5 c4 6b be f2 77 33 bf 3f 8a 51 bf
       -1.5248057 -0.2302428 -0.701049 -0.8185157
000310 06 18 47 bf 86 3f 2c 3e 02 7c 31 3f e0 ec 23 40
       -0.7777103 0.16821107 0.69329846 2.5613327
000320 90 83 33 3d 40 f2 a9 bd 3c a6 a2 bf 6f fb c9 3f
       0.04382664 -0.08298159 -1.2706981 1.5779856
000330 22 7d 4d bf 60 19 41 c0 c1 2b 51 3f eb c0 a1 3f
       -0.8026906 -3.0171738 0.8170739 1.2636999
000340 8a 3e de 3f 9d b6 6d 3f f6 88 52 40 84 4f 24 bf
       1.7362835 0.9285677 3.2896094 -0.6418383
000350 63 e9 62 bf 05 35 69 3e 24 8f a1 be d9 e4 20 c0
       -0.8863737 0.22774132 -0.3155452 -2.5139678
000360 84 34 f9 3e 2d 82 f0 3d 45 19 2b 3f b6 e6 9f 3f
       0.4867288 0.11743579 0.66835433 1.2492282
000370 1c 6f a9 bf 50 67 24 c0 2b 2f 43 3f 78 ce 26 c0
       -1.3237033 -2.5688057 0.7624385 -2.6063519
000380 67 9b fb 3f f8 bb ac 40 c2 3d 40 40 11 9c b1 bf
       1.96568 5.3979454 3.0037694 -1.3875753
000390 60 4b fb bf 83 de af 3e df 8a eb 3e dd 85 16 3e
       -1.9632378 0.3434945 0.46004388 0.14699502
0003a0 f9 fa 10 bf d5 26 58 3f ad 9f ed be b5 f6 ef bf
       -0.56632954 0.8443425 -0.46410885 -1.8747164
0003b0 8a f6 23 40 82 69 13 c0 7f 1d f2 bf 03 4c 55 bf
       2.5619226 -2.3033147 -1.8915251 -0.8331911
0003c0 4a d5 e4 3e f2 f1 9c c0 ae 5a b4 3f 3a b3 99 be
       0.44693977 -4.9045343 1.4090173 -0.30019552
0003d0 23 8c ef bd 17 34 21 c0 6d 3f 42 c0 6b 26 0a bf
       -0.11696651 -2.5188043 -3.0351212 -0.5396487
0003e0 78 b5 be 3f dd 6b 2d be 0f 8a d3 3e fe 9f 18 bd
       1.489913 -0.16935678 0.41316268 -0.037261955
0003f0 5e 41 f1 bf fc 02 1e 3f b6 8c 49 40 25 74 4e 40
       -1.8848073 0.61723304 3.1492133 3.225839

convs.1.fc_full.bias f4 [128]
000000 bd 32 12 bd e6 54 3a 3e f3 d4 d8 3d ec d4 dc bd
       -0.03569292 0.18196449 0.10587492 -0.10782799
000010 14 58 c5 bd ce d6 85 bd bd b6 b8 bd 96 fe aa be
       -0.0963594 -0.06535111 -0.090192296 -0.3339736
000020 9a a1 a6 bd 88 23 30 be b7 24 c7 3c 41 97 fb bd
       -0.08136292 -0.17201054 0.0243095 -0.12284709
000030 23 72 a9 bd f9 7c 4a 3d 50 01 1e bc 5f 58 9d bd
       -0.08273723 0.04943559 -0.009643868 -0.07682871
000040 27 4c 27 3c 9c 05 c6 3d 81 81 15 3e d7 10 bc 3c
       0.010211027 0.09669039 0.14600183 0.022957249
000050 bf 89 5e bc 7b d7 3d bd 29 9e 34 3d 7e 0e 8b 3d
       -0.013582646 -0.046348076 0.044096146 0.067898735
000060 56 60 8d bd de f6 23 3e d6 83 fc 3e 9f 0d d0 bd
       -0.0690314 0.16012141 0.49319333 -0.10158848
000070 5e d5 d1 3c 94 e3 cf bd 28 b5 92 be d9 b1 fb bc
       0.025614437 -0.10150829 -0.28653836 -0.030724453
000080 0f e0 82 bd da 9a 27 be 40 4f 99 be 44 15 df 3c
       -0.06390392 -0.16367665 -0.29943275 0.02723182
000090 f1 79 9d bd cd 1c 6f 3c e0 c6 24 be d6 44 90 3c
       -0.07689274 0.014594269 -0.1609149 0.017610949
0000a0 f9 7a 32 bd 1d f9 55 3e ec 51 c0 3d f6 ac 1d 3d
       -0.043574307 0.2089581 0.09390625 0.038495027
0000b0 e9 2d 83 bd 86 33 94 bd 2c 12 20 bc 5b e9 c3 bd
       -0.06405241 -0.0723639 -0.0097699575 -0.095659934
0000c0 5e 37 b7 bd a4 10 a3 3d db 1c 1a 3d 5a 15 02 3e
       -0.08946107 0.07962158 0.037625175 0.12703457
0000d0 aa 53 0b bd 05 01 ef 3d c7 04 2c be 7f 32 be bd
       -0.034015335 0.11670116 -0.16798697 -0.09286975
0000e0 3f 0d 07 3e b6 7f 59 3c 65 66 37 3e cc 44 16 3d
       0.13188647 0.013275078 0.17910154 0.036686704
0000f0 69 ed 70 3c 73 50 74 bc 93 18 4e 3d cb 47 91 bd
       0.0147050405 -0.014911759 0.050316405 -0.070937715
000100 27 0f eb bd 3f c7 05 3d 1e ae af bd 59 cf e8 3b
       -0.114774995 0.03266072 -0.08578132 0.007104796
000110 f6 c0 ed bc be 96 c3 bd d8 46 84 bc 9b 72 9f 3d
       -0.029022675 -0.09550236 -0.016147062 0.07785531
000120 02 a4 08 3e de cb 8c be 28 4f 6e be dd d2 08 be
       0.13343814 -0.27499288 -0.23272383 -0.13361688
000130 00 99 8b 3d a6 3e a3 bd ce 2e e3 3d d3 17 b2 3d
       0.06816292 -0.079709336 0.11092912 0.0869595
000140 a7 9e 07 3e 7c 78 b8 bd a0 9b 12 3e 51 16 c5 bd
       0.13244115 -0.090073556 0.14317179 -0.09623397
000150 11 05 2e bc b3 0d 52 bc 6d 46 1b bd 09 14 fc 3c
       -0.010621325 -0.012820649 -0.03790896 0.030771272
000160 e8 01 3e bd a5 01 89 bd e5 33 aa bd 80 44 0c be
       -0.046388537 -0.06689767 -0.08310679 -0.13698006
000170 c4 c3 bb 3d 66 4b ce 3e 23 62 a2 be 2c 13 31 be
       0.09168199 0.402919 -0.31715497 -0.1729247
000180 60 08 15 be 88 c0 80 bc f1 df 09 3e 75 4c ab 3e
       -0.14553976 -0.015716806 0.13464333 0.3345677
000190 b8 8b 26 be d0 0b f9 bd bd 5b ba 3d 5f 82 c6 ba
       -0.16264236 -0.12160456 0.09099529 -0.0015145055
0001a0 9d 4d ca 3d 07 30 84 bd 1d a6 4e 3d 9a 7f e5 bd
       0.09878085 -0.06454473 0.050451387 -0.11205979
0001b0 2a c7 9b bc 4a b4 34 be d3 28 f1 3d 5b ff 86 3d
       -0.019015867 -0.176469 0.11775365 0.06591674
0001c0 5e c9 8c 3c 8a 33 1a 3f 1f 80 bb 3b 66 41 74 bd
       0.017185863 0.6023489 0.0057220603 -0.05963268
0001d0 26 48 28 3e 66 59 2e be 5f ce ee bb f5 66 2a bd
       0.16433772 -0.1702629 -0.007287785 -0.041602094
0001e0 3d d1 de 3d 72 63 9c bc e8 9d 38 3e b9 99 6d bc
       0.10879753 -0.019090388 0.18028986 -0.014501982
0001f0 0c 2f 72 3d 07 f8 13 3e 83 95 5b bd 05 99 01 3d
       0.0591269 0.14450084 -0.053609382 0.03164007
